…
net', 'num_classes': 10, 'dataset': 'mnist', 'use_gpu': True, 'input_size': 28, 'epochs': 250, 'batch_size': 128, 'test_batch': 200, 'eval_freq': 2, 'workers': 4, 'optimize': {'momentum': 0.9, 'weight_decay': 0.0001, 'nesterov': True}, 'mixup': False, 'mixup_alpha': 0.4, 'augmentation': {'normalize': True, 'random_crop': True, 'random_horizontal_filp': True, 'cutout': False, 'holes': 1, 'length': 8}, 'lr_scheduler': {'type': 'STEP', 'base_lr': 0.001, 'lr_epochs': [100, 150, 200], 'lr_mults': 0.1, 'min_lr': 0.0, 'lower_bound': -6.0, 'upper_bound': 3.0}}
AlexNet(
  (features): Sequential(
    (0): Conv2d(3, 64, kernel_size=(11, 11), stride=(4, 4), padding=(5, 5))
    (1): ReLU(inplace=True)
    (2): MaxPool2d(kernel_size=2, stride=2, padding=0, dilation=1, ceil_mode=False)
    (3): Conv2d(64, 192, kernel_size=(5, 5), stride=(1, 1), padding=(2, 2))
    (4): ReLU(inplace=True)
    (5): MaxPool2d(kernel_size=2, stride=2, padding=0, dilation=1, ceil_mode=False)
    (6): Conv2d(192, 384, kernel_size=(3, 3), stride=(1, 1), padding=(1, 1))
    (7): ReLU(inplace=True)
    (8): Conv2d(384, 256, kernel_size=(3, 3), stride=(1, 1), padding=(1, 1))
    (9): ReLU(inplace=True)
    (10): Conv2d(256, 256, kernel_size=(3, 3), stride=(1, 1), padding=(1, 1))
    (11): ReLU(inplace=True)
    (12): MaxPool2d(kernel_size=2, stride=2, padding=0, dilation=1, ceil_mode=False)
  )
  (fc): Linear(in_features=256, out_features=10, bias=True)
)
 == total parameters: 2472266
            =======  Training  =======

 === Epoch: [1/250] === 
{'architecture': 'lenet', 'data_path': './data', 'ckpt_path': './', 'ckpt_name': 'lenet', 'num_classes': 10, 'dataset': 'mnist', 'use_gpu': True, 'input_size': 28, 'epochs': 250, 'batch_size': 128, 'test_batch': 200, 'eval_freq': 2, 'workers': 4, 'optimize': {'momentum': 0.9, 'weight_decay': 0.0001, 'nesterov': True}, 'mixup': False, 'mixup_alpha': 0.4, 'augmentation': {'normalize': True, 'random_crop': True, 'random_horizontal_filp': True, 'cutout': False, 'holes': 1, 'length': 8}, 'lr_scheduler': {'type': 'STEP', 'base_lr': 0.001, 'lr_epochs': [100, 150, 200], 'lr_mults': 0.1, 'min_lr': 0.0, 'lower_bound': -6.0, 'upper_bound': 3.0}}
LeNet(
  (conv_1): Conv2d(3, 6, kernel_size=(5, 5), stride=(1, 1))
  (conv_2): Conv2d(6, 16, kernel_size=(5, 5), stride=(1, 1))
  (fc_1): Linear(in_features=400, out_features=120, bias=True)
  (fc_2): Linear(in_features=120, out_features=84, bias=True)
  (fc_3): Linear(in_features=84, out_features=10, bias=True)
)
 == total parameters: 62006
            =======  Training  =======

 === Epoch: [1/250] === 
{'architecture': 'lenet', 'data_path': './data', 'ckpt_path': './', 'ckpt_name': 'lenet', 'num_classes': 10, 'dataset': 'mnist', 'use_gpu': True, 'input_size': 28, 'epochs': 250, 'batch_size': 128, 'test_batch': 200, 'eval_freq': 2, 'workers': 4, 'optimize': {'momentum': 0.9, 'weight_decay': 0.0001, 'nesterov': True}, 'mixup': False, 'mixup_alpha': 0.4, 'augmentation': {'normalize': True, 'random_crop': True, 'random_horizontal_filp': True, 'cutout': False, 'holes': 1, 'length': 8}, 'lr_scheduler': {'type': 'STEP', 'base_lr': 0.001, 'lr_epochs': [100, 150, 200], 'lr_mults': 0.1, 'min_lr': 0.0, 'lower_bound': -6.0, 'upper_bound': 3.0}}
LeNet(
  (conv_1): Conv2d(3, 6, kernel_size=(5, 5), stride=(1, 1))
  (conv_2): Conv2d(6, 16, kernel_size=(5, 5), stride=(1, 1))
  (fc_1): Linear(in_features=400, out_features=120, bias=True)
  (fc_2): Linear(in_features=120, out_features=84, bias=True)
  (fc_3): Linear(in_features=84, out_features=10, bias=True)
)
 == total parameters: 62006
            =======  Training  =======

 === Epoch: [1/250] === 
{'architecture': 'lenet', 'data_path': './data', 'ckpt_path': './', 'ckpt_name': 'lenet', 'num_classes': 10, 'dataset': 'mnist', 'use_gpu': True, 'input_size': 28, 'epochs': 250, 'batch_size': 128, 'test_batch': 200, 'eval_freq': 2, 'workers': 4, 'optimize': {'momentum': 0.9, 'weight_decay': 0.0001, 'nesterov': True}, 'mixup': False, 'mixup_alpha': 0.4, 'augmentation': {'normalize': True, 'random_crop': True, 'random_horizontal_filp': True, 'cutout': False, 'holes': 1, 'length': 8}, 'lr_scheduler': {'type': 'STEP', 'base_lr': 0.001, 'lr_epochs': [100, 150, 200], 'lr_mults': 0.1, 'min_lr': 0.0, 'lower_bound': -6.0, 'upper_bound': 3.0}}
LeNet(
  (conv_1): Conv2d(3, 6, kernel_size=(5, 5), stride=(1, 1))
  (conv_2): Conv2d(6, 16, kernel_size=(5, 5), stride=(1, 1))
  (fc_1): Linear(in_features=256, out_features=120, bias=True)
  (fc_2): Linear(in_features=120, out_features=84, bias=True)
  (fc_3): Linear(in_features=84, out_features=10, bias=True)
)
 == total parameters: 44726
            =======  Training  =======

 === Epoch: [1/250] === 
   == step: [100/469], train loss: 1.658 | train acc: 40.938% | lr: 0.001000
   == step: [200/469], train loss: 1.243 | train acc: 56.297% | lr: 0.001000
   == step: [300/469], train loss: 1.034 | train acc: 63.755% | lr: 0.001000
   == step: [400/469], train loss: 0.912 | train acc: 68.252% | lr: 0.001000
…
{'architecture': 'lenet', 'data_path': './data', 'ckpt_path': './', 'ckpt_name': 'lenet', 'num_classes': 10, 'dataset': 'mnist', 'use_gpu': True, 'input_size': 28, 'epochs': 250, 'batch_size': 128, 'test_batch': 200, 'eval_freq': 2, 'workers': 4, 'optimize': {'momentum': 0.9, 'weight_decay': 0.0001, 'nesterov': True}, 'mixup': False, 'mixup_alpha': 0.4, 'augmentation': {'normalize': True, 'random_crop': True, 'random_horizontal_filp': True, 'cutout': False, 'holes': 1, 'length': 8}, 'lr_scheduler': {'type': 'STEP', 'base_lr': 0.001, 'lr_epochs': [100, 150, 200], 'lr_mults': 0.1, 'min_lr': 0.0, 'lower_bound': -6.0, 'upper_bound': 3.0}}
LeNet(
  (conv_1): Conv2d(3, 6, kernel_size=(5, 5), stride=(1, 1))
  (conv_2): Conv2d(6, 16, kernel_size=(5, 5), stride=(1, 1))
  (fc_1): Linear(in_features=256, out_features=120, bias=True)
  (fc_2): Linear(in_features=120, out_features=84, bias=True)
  (fc_3): Linear(in_features=84, out_features=10, bias=True)
)
 == total parameters: 44726
            =======  Training  =======

 === Epoch: [1/250] === 
   == step: [100/469], train loss: 1.609 | train acc: 42.531% | lr: 0.001000
   == step: [200/469], train loss: 1.204 | train acc: 57.711% | lr: 0.001000
   == step: [300/469], train loss: 1.012 | train acc: 64.776% | lr: 0.001000
   == step: [400/469], train loss: 0.895 | train acc: 68.988% | lr: 0.001000
…
